Generating grammar tables from /usr/lib/python3.6/lib2to3/Grammar.txt
Generating grammar tables from /usr/lib/python3.6/lib2to3/PatternGrammar.txt
train_main.py

Namespace(algo='ppo', env='CarRacing-v0', eval_interval=0, frames=10000000.0, log_interval=1, max_eprews=0, model='CarRacing', model_dir='results_dir/CarRacing', procs=8, save_all=False, save_best=True, save_interval=10, seed=1, tb=True)

Training data exists & loaded successfully

Model [ModelV0] successfully created

ModelV0(
  (image_conv): Sequential(
    (0): Conv2d(4, 16, kernel_size=(5, 5), stride=(2, 2))
    (1): BatchNorm2d(16, eps=1e-05, momentum=0.1, affine=True, track_running_stats=True)
    (2): ReLU()
    (3): Conv2d(16, 32, kernel_size=(5, 5), stride=(2, 2))
    (4): BatchNorm2d(32, eps=1e-05, momentum=0.1, affine=True, track_running_stats=True)
    (5): ReLU()
    (6): Conv2d(32, 32, kernel_size=(5, 5), stride=(2, 2))
    (7): BatchNorm2d(32, eps=1e-05, momentum=0.1, affine=True, track_running_stats=True)
    (8): ReLU()
  )
  (actor): Sequential(
    (0): Linear(in_features=2592, out_features=256, bias=True)
    (1): LeakyReLU(negative_slope=0.01)
    (2): Linear(in_features=256, out_features=382, bias=True)
  )
  (critic): Sequential(
    (0): Linear(in_features=2592, out_features=256, bias=True)
    (1): LeakyReLU(negative_slope=0.01)
    (2): Linear(in_features=256, out_features=1, bias=True)
  )
)

CUDA available: True

Generating grammar tables from /usr/lib/python3.6/lib2to3/Grammar.txt
Generating grammar tables from /usr/lib/python3.6/lib2to3/PatternGrammar.txt
train_main.py

Namespace(algo='ppo', env='CarRacing-v0', eval_interval=0, frames=10000000.0, log_interval=1, max_eprews=0, model='CarRacing', model_dir='results_dir/CarRacing', procs=8, save_all=False, save_best=True, save_interval=10, seed=1, tb=True)

Training data exists & loaded successfully

Model [ModelV0] successfully created

ModelV0(
  (image_conv): Sequential(
    (0): Conv2d(4, 16, kernel_size=(5, 5), stride=(2, 2))
    (1): BatchNorm2d(16, eps=1e-05, momentum=0.1, affine=True, track_running_stats=True)
    (2): ReLU()
    (3): Conv2d(16, 32, kernel_size=(5, 5), stride=(2, 2))
    (4): BatchNorm2d(32, eps=1e-05, momentum=0.1, affine=True, track_running_stats=True)
    (5): ReLU()
    (6): Conv2d(32, 32, kernel_size=(5, 5), stride=(2, 2))
    (7): BatchNorm2d(32, eps=1e-05, momentum=0.1, affine=True, track_running_stats=True)
    (8): ReLU()
  )
  (actor): Sequential(
    (0): Linear(in_features=2592, out_features=256, bias=True)
    (1): LeakyReLU(negative_slope=0.01)
    (2): Linear(in_features=256, out_features=382, bias=True)
  )
  (critic): Sequential(
    (0): Linear(in_features=2592, out_features=256, bias=True)
    (1): LeakyReLU(negative_slope=0.01)
    (2): Linear(in_features=256, out_features=1, bias=True)
  )
)

CUDA available: True

U 1 | F 000800 | FPS 0134 | D 5 | rR:μσmM -48.69 128.82 -389.53 0.00 | F:μσmM 7.4 19.5 0.0 59.0 | H 10.290 | V -0.567 | pL 17.387 | vL 1437.415 | ∇ 25.998
U 2 | F 001600 | FPS 0124 | D 12 | rR:μσmM -253.45 158.40 -440.02 0.00 | F:μσmM 85.2 59.3 0.0 159.0 | H 10.145 | V -2.505 | pL 50.879 | vL 4866.090 | ∇ 51.187
U 3 | F 002400 | FPS 0120 | D 19 | rR:μσmM -146.80 126.49 -440.02 -50.65 | F:μσmM 167.1 72.7 67.0 235.0 | H 9.915 | V -4.250 | pL 11.289 | vL 475.822 | ∇ 20.873
…
