/home/nemodrive3/robert_s/RL_CarRacing/scripts/train.py --algo ppo --model CarRacingDQNStacked4 --save-interval 50 --procs 12 --tb

Namespace(algo='ppo', batch_size=256, clip_eps=0.2, discount=0.99, entropy_coef=0.01, epochs=4, frames=10000000, frames_per_proc=None, gae_lambda=0.95, log_interval=1, lr=0.0007, max_grad_norm=0.5, mem=False, model='CarRacingDQNStacked4', optim_alpha=0.99, optim_eps=1e-05, procs=12, recurrence=1, save_interval=50, seed=1, tb=True, value_loss_coef=0.5)

Model successfully created

ACModel(
  (image_conv): Sequential(
    (0): Conv2d(4, 16, kernel_size=(5, 5), stride=(2, 2))
    (1): BatchNorm2d(16, eps=1e-05, momentum=0.1, affine=True, track_running_stats=True)
    (2): ReLU()
    (3): Conv2d(16, 32, kernel_size=(5, 5), stride=(2, 2))
    (4): BatchNorm2d(32, eps=1e-05, momentum=0.1, affine=True, track_running_stats=True)
    (5): ReLU()
    (6): Conv2d(32, 64, kernel_size=(5, 5), stride=(2, 2))
    (7): BatchNorm2d(64, eps=1e-05, momentum=0.1, affine=True, track_running_stats=True)
    (8): ReLU()
  )
  (actor): Sequential(
    (0): Linear(in_features=5184, out_features=1024, bias=True)
    (1): Tanh()
    (2): Linear(in_features=1024, out_features=382, bias=True)
  )
  (critic): Sequential(
    (0): Linear(in_features=5184, out_features=64, bias=True)
    (1): Tanh()
    (2): Linear(in_features=64, out_features=1, bias=True)
  )
)

CUDA available: True

Track generation: 1055..1332 -> 277-tiles track
U 1 | F 001536 | FPS 0211 | D 7 | rR:μσmM -49.57 77.03 -211.17 0.00 | F:μσmM 31.6 47.7 0.0 128.0 | H 10.014 | V -0.290 | pL 11.592 | vL 641.551 | ∇ 16.840
Track generation: 1069..1347 -> 278-tiles track
U 2 | F 003072 | FPS 0198 | D 15 | rR:μσmM -136.30 89.19 -304.21 -28.31 | F:μσmM 172.2 59.6 65.0 235.0 | H 9.520 | V -0.506 | pL 16.573 | vL 1385.232 | ∇ 23.005
…
